networks/simplecnn/cnn.pt (torch_old, 22943 bytes, 3 tensors)

weight f4 [1, 3, 20]
000000 da 56 2e 3d 56 fa 0f 3d ed e9 21 3d e1 af 98 3d
       0.042563297 0.03515085 0.03952973 0.07455421
000010 31 8a 77 3c 97 5f 8a 3c 38 17 96 3c b9 a1 57 3d
       0.015108631 0.016891284 0.018321618 0.052644465
000020 de 58 f2 3c e1 8d fd 3b 41 1a 3b bd 86 74 59 bd
       0.02958339 0.0077378605 -0.045679335 -0.05308964
000030 3f 97 f4 bc 37 64 10 bd 09 a0 42 bc 29 0b 11 bb
       -0.029857276 -0.035251822 -0.011878976 -0.0022131896
000040 c5 5f 6b 3d 10 0d 95 3c a1 99 db 3a a1 2e cd b8
       0.05746438 0.018194705 0.0016754159 -9.783847e-05
000050 11 28 9d be 32 f3 92 be e4 3a a1 be af 7e a8 be
       -0.3069463 -0.28701168 -0.31490242 -0.32909152
000060 5d 98 a7 be 3a 4b 8b be d0 37 94 be 18 d3 9e be
       -0.3273343 -0.2720583 -0.28948832 -0.31020427
000070 39 51 a7 be c5 c0 94 be 66 33 84 be a8 e0 93 be
       -0.32679155 -0.2905332 -0.25820464 -0.28882337
000080 bf bc 86 be fe b3 89 be 88 d7 95 be 5d e7 9a be
       -0.26315877 -0.26895136 -0.29266 -0.3025464
000090 1a 4b 9f be 14 59 85 be 18 81 67 be fc 57 6f be
       -0.31111985 -0.26044524 -0.22607839 -0.23373407
0000a0 53 e1 b9 be 89 ea ca be 5f a0 d2 be c5 3d 00 bf
       -0.3630472 -0.3963206 -0.41137978 -0.5009425
0000b0 77 b2 06 bf f8 1c 03 bf ba 23 f8 be 62 5e e4 be
       -0.52616066 -0.5121608 -0.48464757 -0.44603258
0000c0 a4 e9 e7 be a4 de dc be 99 f1 da be d3 8f e6 be
       -0.4529544 -0.4313861 -0.4276245 -0.45031604
0000d0 e9 03 f3 be bc ab ec be 6c de e6 be e5 6b d3 be
       -0.4746392 -0.46224773 -0.4509157 -0.41293254
0000e0 21 f1 ce be 57 38 ac be 1e fe b0 be f2 2e a8 be
       -0.40418342 -0.33636734 -0.34568876 -0.32848316

weight f4 [7, 230]
000000 c8 56 55 be 96 88 08 3d f8 cb 2e be 3e a3 da bb
       -0.20833886 0.033333384 -0.17069995 -0.006672292
000010 27 bc 10 be ae 32 04 be 68 19 a4 be d6 4c 8d bd
       -0.14134274 -0.12909958 -0.32050633 -0.06899421
000020 19 79 6b bd 79 aa ba bd 72 8f af be a4 b7 bd bd
       -0.057488535 -0.09114546 -0.34289128 -0.09263542
000030 9b b8 8b bd 17 9b 02 39 df eb ad bd c6 a8 29 bc
       -0.0682232 0.00012455542 -0.084922545 -0.01035518
000040 22 db aa 3c 9b 32 8e 3d c4 06 bc 3d eb ee 08 3e
       0.020856444 0.06943246 0.09180978 0.1337239
000050 49 9e 09 3e ad 02 95 3d 1b 34 c5 bd dc 83 9e 3d
       0.13439287 0.07275901 -0.09629079 0.07739994
000060 64 d2 ca bc b7 6f 94 3d 09 5b 1e be 32 5b 94 bc
       -0.024758525 0.072478704 -0.15464415 -0.018109892
000070 13 38 aa 3b 03 4c 26 3e 20 eb a3 bc 65 de 22 3e
       0.005194673 0.16239934 -0.020009577 0.1590515
000080 21 77 b2 3d 76 90 c9 3d be 0f 33 3e 1f 02 14 3e
       0.08714128 0.09842007 0.17486474 0.14453934
000090 72 8e 41 be c5 39 6e 3e 6c 3b 99 3e 01 18 9e 3e
       -0.18901995 0.23264225 0.29928148 0.3087769
0000a0 3c 96 78 3e 87 9a 51 bd 25 5e 0a 3e 5e 83 04 3e
       0.2427606 -0.05117276 0.13512476 0.12940738
0000b0 d2 c2 52 3d c8 f4 15 be 53 f6 b3 bd 3b ea 60 be
       0.051455326 -0.14644158 -0.08787217 -0.21964352
0000c0 48 3e 48 be 8d 79 07 3e 30 94 2f 3e 3e d3 51 3d
       -0.19555008 0.13229962 0.17146373 0.051226847
0000d0 23 83 99 3c 94 95 45 3d 3b b5 96 bd 33 71 01 bd
       0.018739289 0.048238352 -0.07358786 -0.031602096
0000e0 00 a6 c7 bd d3 fc 30 be 3e a0 9c bd 5b ca 93 3d
       -0.09748459 -0.17283945 -0.07647751 0.072163306
0000f0 6e d9 61 bd 2e fe 68 3d 96 e7 32 bd 53 3d 70 be
       -0.055138998 0.05688303 -0.04367789 -0.23460893
000100 e2 5f 41 be 6e 11 fc bd e4 fd ed bd 8a bd 5f be
       -0.18884233 -0.12308012 -0.116206914 -0.21849647
000110 29 ac 2e be 33 82 8a be e1 10 c2 bd 7d cd 6a be
       -0.17057861 -0.2705246 -0.09475876 -0.2292995
000120 bb 67 d0 bd 25 cc a6 be 57 b6 4d be 04 a2 07 bf
       -0.10176035 -0.32577625 -0.20089088 -0.5298159
000130 33 02 a8 be c8 48 d0 be 64 d3 bc be 14 44 10 bf
       -0.32814178 -0.40680528 -0.36880028 -0.5635388
000140 11 71 a4 be bd a8 97 be 27 83 6e be e4 86 24 bf
       -0.32117513 -0.29620925 -0.23292218 -0.64268327
000150 38 25 89 be 8c 02 8e 3c 9b 36 2e be 75 aa 23 be
       -0.26786208 0.017335199 -0.17013018 -0.15982993
000160 32 ab ee bd 8f 6e 61 be 30 67 7a be 6f c1 94 be
       -0.11653747 -0.22014831 -0.24453425 -0.29053828
000170 b4 be 81 be d0 56 04 bf 85 3b b2 be 2b 4d d5 bd
       -0.25340807 -0.51694965 -0.34811035 -0.10415109
000180 b5 a6 db be a1 e1 47 be 56 02 8a be 87 24 1b bf
       -0.42900625 -0.19519664 -0.26954907 -0.6060261
000190 ca bd ed be a7 e0 75 be f9 82 9b bd 42 90 79 be
       -0.4643386 -0.2401148 -0.075933404 -0.24371436
0001a0 a9 3f 72 be ae bc e1 be 1d fb 96 be ca 94 80 be
       -0.23657097 -0.44089264 -0.2948846 -0.25113517
0001b0 7c 85 7c bd 5a ad 87 bc ad c0 11 be f2 0f 75 be
       -0.061650738 -0.016562153 -0.14233656 -0.23931864
0001c0 65 c5 20 be 55 69 b3 3d 9a 9f 6a 3d e9 10 e3 bc
       -0.157003 0.08760325 0.057281114 -0.027718024
0001d0 9d 43 74 3c a2 7c bd 3d 9c d8 44 be 4d ef c2 be
       0.014908698 0.092522874 -0.19223255 -0.38073197
0001e0 b6 d8 0b 3d bb 9e 91 bc dc 26 82 3d f0 f9 95 bd
       0.03414222 -0.017775884 0.06355068 -0.073230624
0001f0 d4 ae ab 3d b9 87 2e be 88 aa e1 bd 1e 31 9f be
       0.08382955 -0.17043962 -0.110188544 -0.3109216
000200 7e fd 0c bf 08 11 ea bd ca 82 cb be 7f 47 7d be
       -0.550743 -0.1142903 -0.39748222 -0.24734305
000210 0d 95 67 be 94 b8 86 be f7 af f3 bd 8e e7 16 bd
       -0.22615452 -0.26312697 -0.11898797 -0.03684192
000220 66 70 a4 bd 9e 94 d9 bd f9 d0 46 3c 88 11 cc bd
       -0.08029251 -0.106240496 0.012134784 -0.09964281
000230 30 a7 0a be 2c dc 87 be e7 f9 99 be f8 aa 2e be
       -0.1354034 -0.26535165 -0.30073473 -0.17057407
000240 90 25 f8 bd de b8 0d bc b6 4b 34 bd 6a 05 e4 3c
       -0.121165395 -0.008650033 -0.044017516 0.027834613
000250 58 47 0a 3d f5 0f 26 3e 71 24 b3 3d a0 4c f7 3d
       0.033759445 0.16217025 0.08747185 0.12075162
000260 12 e2 d3 3d 99 db 77 3d ca fe 9b 3d 9b 98 fb 3d
       0.10345854 0.06051216 0.076169565 0.122849666
000270 91 73 96 3d f2 14 3a 3d d3 8f 31 3e 12 f1 08 3e
       0.07346261 0.04543013 0.17340021 0.13373211
000280 ca ae 18 3e 5b 2e 78 3d 1e bb cd 3d a7 a0 72 bc
       0.14910427 0.060591083 0.100454554 -0.01480881
000290 ee 7a 37 bc 59 f5 f6 bd f9 5e c2 3d 5e a5 fd bd
       -0.011198742 -0.12058515 0.09490771 -0.12385057
0002a0 f5 81 f6 bc dd 65 4d 3d 2e 83 c0 3d d6 dd a1 bd
       -0.030091265 0.050145973 0.094000205 -0.0790364
0002b0 79 40 8b bd b0 63 66 3d c4 09 ca 3d 2e ef 0d 3d
       -0.067994066 0.056247413 0.09865144 0.034651928
0002c0 39 8a 11 3d c6 2d e2 3d 8f 69 17 3e e8 b7 30 3e
       0.03553221 0.11043887 0.14786361 0.17257655
0002d0 65 00 d2 3d 3c 50 bb 3d 58 6f b2 3d 4b 09 2d 3e
       0.102539815 0.09146163 0.087126434 0.16898076
0002e0 7a 5b 58 3c df cd 5b bd 42 97 a4 3d c7 65 3e 3c
       0.013205403 -0.05366313 0.08036663 0.011620945
0002f0 2c 1b ba bc 20 c6 e6 bd a4 a3 36 3d 67 d1 03 bc
       -0.022718035 -0.11268258 0.044589654 -0.008045531
000300 36 49 9f bd 63 43 5b bd c1 52 fb bc c3 3c 41 3d
       -0.07777636 -0.05353106 -0.030679109 0.047177088
000310 ef 94 6a be b3 01 a3 be 75 da 1d be 49 92 fe bd
       -0.22908376 -0.31837234 -0.15415366 -0.124302454
000320 1d a2 0e be 92 22 a8 bd dd 4e 42 bd b4 04 72 be
       -0.13929029 -0.08209719 -0.04743849 -0.23634607
000330 d0 cb 02 be 0d 55 54 3b 48 24 c9 3a 2c e8 23 bd
       -0.12773061 0.0032399327 0.0015345896 -0.04001634
000340 6a a7 a0 bd 02 c5 65 be 69 b1 37 be ff 75 04 be
       -0.07844432 -0.22438434 -0.1793877 -0.12935637
000350 a0 5d d1 bd 6a 74 e7 bd a2 e1 14 be db 77 86 be
       -0.10222936 -0.11301501 -0.14539197 -0.26263317
000360 32 86 90 be 94 86 2a be aa a7 a8 be 3d cf c5 be
       -0.28227383 -0.166529 -0.32940418 -0.38634673
000370 f9 6b 3f be d1 d2 5c be 69 a9 29 be 6f 4d 3a be
       -0.18693532 -0.21564795 -0.16568531 -0.18193601
000380 15 4e 9f bd e7 20 76 be 27 be 90 be c2 d7 1e be
       -0.07778565 -0.24035989 -0.28270075 -0.15511993
000390 1b fb 06 be 7d 54 1a be d6 fa bc 3e 93 12 a6 3e
       -0.13181727 -0.15071292 0.36910123 0.32436046
0003a0 dd c7 a3 3e 1e 6c a2 3e 78 73 74 3e b9 c7 67 3e
       0.3198842 0.31723112 0.23872173 0.22634782
0003b0 eb f6 4c 3e d2 5d 6e 3e bb 78 43 3e 3e e3 99 3e
       0.20016067 0.23277977 0.19089024 0.30056185
0003c0 61 3b 67 3e 5d 98 18 3e 20 63 77 3e 6d 57 03 3e
       0.22581245 0.14901872 0.24158907 0.12826319
0003d0 b3 68 72 3e 55 cf 47 3e 35 19 62 3e 40 29 8a 3e
       0.23672752 0.19512685 0.22079928 0.26984596
0003e0 2f 1e af 3e 6e 77 b9 3e 7f 57 69 3e 4c 04 5d 3e
       0.34202716 0.3622393 0.22787283 0.2158367
0003f0 a8 e7 32 3e 8f 2f 10 3e af a1 2e 3e 0f 9b 80 3d
       0.17471182 0.14080642 0.17053865 0.06279575

bias f4 [7]
000000 cd fb 67 c0 6f 26 84 3f e2 97 d7 be 10 af bb 3f
       -3.6247437 1.0324229 -0.42108065 1.46628
000010 61 ca cc c0 41 15 cf c0 be a3 ca c0
       -6.3997045 -6.4713445 -6.332488
