networks/simplecnn/cnn.pt (torch_old, 22943 bytes, 3 tensors)

weight f4 [1, 3, 20]
0.13688071 0.11359599 0.106308356 0.123093925 0.0956157 0.10162468 0.09829028 0.09960201
0.110198624 0.09772935 0.07701365 0.10083925 0.10922183 0.10496358 0.08487263 0.07316298
0.111608185 0.11627293 0.14324875 0.13785255 -0.26615143 -0.26044554 -0.27126002 -0.2789196
-0.2617649 -0.2535304 -0.26575592 -0.27690166 -0.2868651 -0.2551805 -0.23335443 -0.24237514
-0.2282968 -0.25403428 -0.26707852 -0.28167376 -0.29121312 -0.25279185 -0.25346613 -0.24979599
-0.2858138 -0.28924647 -0.3278871 -0.3881368 -0.38074833 -0.35822147 -0.32153198 -0.32511133
-0.32533023 -0.35261175 -0.33989868 -0.33411092 -0.3495316 -0.34702277 -0.35730535 -0.3310719
-0.3198832 -0.2642387 -0.29542622 -0.291782
00000000: 752a 0c3e 04a5 e83d 32b8 d93d ab18 fc3d
00000010: 2ad2 c33d 9a20 d03d 6a4c c93d 23fc cb3d
00000020: d1af e13d 5326 c83d 55b9 9d3d cf84 ce3d
00000030: b2af df3d 25f7 d63d b4d1 ad3d 79d6 953d
00000040: d592 e43d 8020 ee3d cdaf 123e 3829 0d3e
00000050: 0045 88be 1e59 85be 98e2 8abe 8dce 8ebe
00000060: 0d06 86be bdce 81be 2911 88be 0ec6 8dbe
00000070: fbdf 92be 05a7 82be 77f4 6ebe 3031 78be
00000080: a3c6 69be c810 82be 84be 88be 8b37 90be
00000090: e319 95be ef6d 81be 50c6 81be 85ca 7fbe
000000a0: 3056 92be 1d18 94be d1e0 a7be deb9 c6be
000000b0: 72f1 c2be ce68 b7be d79f a4be fe74 a6be
000000c0: af91 a6be 8789 b4be 3307 aebe 9610 abbe
000000d0: cef5 b2be f8ac b1be baf0 b6be 4282 a9be
000000e0: bbc7 a3be 4b4a 87be 1b42 97be 7364 95be

weight f4 [7, 230]
0.1682723 0.13100845 -0.08200591 0.20493029 0.19362523 0.30137473 0.22873938 0.24588417
-0.036116045 0.20601165 -0.30001187 0.1733662 -0.17522015 -0.096834734 0.2262078 0.20810197
0.16242993 -0.08225615 0.27623916 -0.010632304 -0.010191914 0.18776804 0.27303097 0.31923386
0.24364036 0.26343167 0.029040357 0.29668087 0.25751737 0.07075447 0.031091807 0.05901906
0.15839663 0.11767528 0.23211733 0.27529368 0.2165317 0.17836818 -0.058725134 0.14506353
0.12046595 0.1928505 0.14316244 0.07098819 -0.006917557 0.103612885 -0.18950924 -0.29091918
0.21787994 -0.012997124 0.3660581 0.3263498 0.30387634 0.3856788 0.51197714 0.49062026
0.071856715 0.49511543 0.5107475 0.47761288 0.44996127 0.3513184 0.5309365 0.4504504
0.27611446 0.30158374 0.15831651 0.32792976 0.3181118 0.24456967 0.24871987 0.19731833
0.13225405 0.21884449 0.067415826 0.023334224 0.037761837 0.20695996 0.23975697 0.20928635
0.35149142 0.08832317 0.21733253 0.18777189 0.15128072 0.26268834 0.2452493 0.2548867
0.18736318 0.0912447 0.05105547 0.023940116 0.17966312 0.24025083 0.40736213 0.32801494
0.4357967 0.40703383 0.42539495 0.5199196 0.19381498 0.10285257 0.21124199 0.48737955
0.5546424 0.39834234 0.4813102 0.52742046 0.39754272 0.41185084 0.45880428 0.4847737
0.3756282 0.36767513 0.24070022 0.37764367 0.40983784 0.41967845 0.39272445 0.4361184
0.41537002 0.39783475 0.33582807 0.31519607 0.30535817 0.21813266 0.22325546 0.28576997
0.24096179 0.21271247 0.25217113 0.26935136 -0.012916015 0.044636365 0.2484302 0.3075505
0.2874754 0.20794407 0.18046655 0.16701627 0.17919432 0.12651554 0.27535266 0.2848183
0.075145155 0.24532422 0.24724399 0.22623573 0.33488595 0.36756605 0.13042095 0.06289891
0.08347277 -0.026618985 -0.0046328455 -0.041366428 -0.057785474 -0.022084612 -0.106879525 0.031788077
-0.010853868 -0.05681412 0.1254457 0.05806822 -0.039071694 0.0054300684 -0.2503123 -0.21551906
0.027858026 0.11623931 0.15250789 0.17265673 0.15704434 0.22426414 0.31213158 0.30157074
0.13132495 0.38157323 0.40735143 0.42737028 0.46248242 0.47945672 0.35629448 0.40009242
0.277649 0.25697604 0.15962024 0.3147944 0.23232214 0.16549122 0.13193214 0.09826451
0.07884883 0.05156968 0.0679353 0.018513415 0.0639719 0.23730293 0.21548307 0.13466716
0.033506308 0.085172646 0.13875748 0.10189796 0.18905602 0.29044655 0.25793058 0.24973735
0.20572324 0.10220809 0.059686907 0.08034543 0.22123899 0.31025222 0.30011156 0.29847842
0.5323891 0.36753505 0.46100995 0.4240547 0.2535685 0.14343454 0.14943108 0.43234488
0.45826858 0.3969435 0.40161046 0.34912091 0.43186855 0.3280592 0.12169199 0.10427164
0.11435585 0.076689355 0.17010842 0.05180052 0.12609157 0.07660596 0.17681645 0.25622034
0.251756 0.23889594 0.25800964 0.13449466 0.22251235 0.17930523 0.21020003 0.40249974
0.34903032 0.39414194 0.4147146 0.33414242 0.32176512 0.34420457 0.2087409 0.1628232
00000000: 934f 2c3e 1427 063e b7f2 a7bd 3fd9 513e
00000010: b145 463e ca4d 9a3e a83a 6a3e 0fc9 7b3e
00000020: 6bee 13bd b8f4 523e 289b 99be e986 313e
00000030: e96c 33be 4a51 c6bd 04a3 673e af18 553e
00000040: 0854 263e ea75 a8bd 386f 8d3e 1d33 2ebc
00000050: fcfb 26bc 4446 403e b7ca 8b3e 9f72 a33e
00000060: dc7c 793e 84e0 863e 0be6 ed3c 8ee6 973e
00000070: 51d9 833e b8e7 903d 3fb4 fe3c f8bd 713d
00000080: ba32 223e bdff f03d 2ab0 6d3e 4bf3 8c3e
00000090: 7cba 5d3e 26a6 363e c489 70bd 898b 143e
000000a0: dab6 f63d 9a7a 453e 2d99 123e 4262 913d
000000b0: adac e2bb fe32 d43d b60e 42be 5cf3 94be
000000c0: eb1b 5f3e e4f1 54bc f86b bb3e 5217 a73e
000000d0: ae95 9b3e b177 c53e ef10 033f 9432 fb3e
000000e0: 9d29 933d c57f fd3e 59c0 023f ad89 f43e
000000f0: 5361 e63e 01e0 b33e 74eb 073f 6fa1 e63e
00000100: e05e 8d3e 2f69 9a3e b91d 223e 69e6 a73e
00000110: 8ddf a23e 7970 7a3e 6cb0 7e3e d10d 4a3e
00000120: 9b6d 073e c518 603e 4f11 8a3d 6a27 bf3c
00000130: 28ac 1a3d 50ed 533e da82 753e 294f 563e
00000140: aff6 b33e c7e2 b43d 6b8c 5e3e 4647 403e
00000150: 55e9 1a3e 167f 863e a222 7b3e 8280 823e
00000160: 22dc 3f3e 80de ba3d 8a1f 513d 101e c43c
00000170: 9cf9 373e 5004 763e c591 d03e 93f1 a73e
00000180: bf20 df3e bd66 d03e 5ecd d93e 7319 053f
00000190: 6f77 463e 5ea4 d23d d24f 583e d089 f93e
000001a0: 0bfd 0d3f 87f3 cb3e 4a6e f63e 0705 073f
000001b0: b88a cb3e 1dde d23e 65e8 ea3e 4234 f83e
000001c0: 5752 c03e ea3f bc3e 1e7a 763e 835a c13e
000001d0: 44d6 d13e 18e0 d63e 2e13 c93e e94a df3e
000001e0: 61ab d43e ffb0 cb3e a8f1 ab3e 6161 a13e
000001f0: e857 9c3e 2b5e 5f3e 149d 643e 7150 923e
00000200: b0be 763e 4cd1 593e 931c 813e 6ce8 893e
00000210: b29d 53bc 9fd4 363d 7d64 7e3e 4277 9d3e
00000220: fa2f 933e 4aef 543e 39cc 383e 5006 2b3e
00000230: b77e 373e 4a8d 013e 06fb 8c3e b4d3 913e
00000240: b4e5 993d 4636 7b3e 872d 7d3e 57aa 673e
00000250: 2c76 ab3e 9e31 bc3e 128d 053e 25d1 803d
00000260: c6f3 aa3d 0f10 dabc 20cf 97bb d86f 29bd
00000270: 76b0 6cbd caea b4bc a7e3 dabd 3734 023d
00000280: 6cd4 31bc ecb5 68bd d674 003e f1d8 6d3d
00000290: a409 20bd b7ee b13b ef28 80be 07b1 5cbe
000002a0: 8436 e43c e00e ee3d 072b 1c3e edcc 303e
000002b0: 3bd0 203e 80a5 653e b6cf 9f3e 7b67 9a3e
000002c0: 0c7a 063e 915d c33e 5e90 d03e 47d0 da3e
000002d0: 7fca ec3e 5a7b f53e 3b6c b63e ead8 cc3e
000002e0: 0228 8e3e 5d92 833e 7d73 233e bb2c a13e
000002f0: dbe5 6d3e 8876 293e 3819 073e e73e c93d
00000300: 7f7b a13d bb3a 533d aa21 8b3d 72a9 973c
00000310: b303 833d 8aff 723e 98a7 5c3e 30e6 093e
00000320: e93d 093d ff6e ae3d 7116 0e3e e1af d03d
00000330: e797 413e 69b5 943e 7a0f 843e 26bb 7f3e
00000340: 1da9 523e 7a52 d13d 427a 743d 258c a43d
00000350: 798c 623e 61d9 9e3e 39a8 993e 2ad2 983e
00000360: a74a 083f 8e2d bc3e 7f09 ec3e b31d d93e
00000370: bbd3 813e 81e0 123e 7604 193e 4f5c dd3e
00000380: 2ea2 ea3e 2e3c cb3e e39f cd3e fabf b23e
00000390: e01d dd3e 60f7 a73e a639 f93d 5f8c d53d
000003a0: 6633 ea3d 4f0f 9d3d e730 2e3e c82c 543d
000003b0: 261e 013e 96e3 9c3d 5f0f 353e 502f 833e
000003c0: 2ae6 803e 23a1 743e d719 843e f8b8 093e
000003d0: 47da 633e ca9b 373e ad3e 573e 7214 ce3e
000003e0: 1ab4 b23e f9cc c93e 7955 d43e b714 ab3e
000003f0: 66be a43e 953b b03e 2dc0 553e 20bb 263e

bias f4 [7]
-4.537571 0.95487386 -0.3211005 1.4547507 -6.5838733 -6.530387 -6.5772867
00000000: c833 91c0 9d72 743f 4967 a4be 4535 ba3f
00000010: 17af d2c0 eef8 d0c0 2279 d2c0
